Real_Derma/Para/DermaMNIST_rand.pth (torch, 51068 bytes, 14 tensors)

features.0.weight f4 [6, 3, 5, 5]
0.2550043 0.2656186 -0.029883295 -0.10296831 -0.06690067 0.21744877 0.09338105 0.03197602
-0.10510861 -0.05375797 0.025548415 -0.05793134 -0.22962666 -0.18375717 -0.17012942 0.0010929223
-0.06289239 -0.033655692 -0.15760678 -0.1885487 0.0850057 0.015867772 -0.11673919 -0.013263014
-0.14686628 0.27098173 0.31465483 -0.06498437 -0.1610453 -0.15646794 0.13132587 0.18397105
-0.19080134 -0.24286021 -0.28615686 -0.098800324 -0.15747125 -0.0994629 -0.11971982 -0.16076677
-0.07652581 -0.2483808 -0.114397936 -0.16501112 -0.25299433 -0.06838058 -0.058986604 -0.040034853
-0.1208102 -0.13996321 0.31946576 0.32359764 0.10540696 -0.023477657 0.014679295 0.108596236
0.12245048 -0.15883823 -0.18523248 -0.15990959 0.08414404 0.00636188 -0.17935976 -0.010300893
0.013753559 -0.04947878 -0.09825184 0.018273612 0.18625376 0.13162738 -0.044272363 -0.085990846
0.06863944 0.1817265 0.15450497 0.12725303 0.06990707 -0.12501757 -0.089613445 -0.12781425
-0.10564187 0.12633857 0.080729425 -0.11370174 0.051089592 -0.00092175 0.06435915 0.013969035
0.13095957 -0.050212584 0.07424991 0.16285479 0.1947726 0.1426222 -0.083068736 -0.07256041
0.117186524 0.075075105 -0.071281485 -0.08342343 0.0024436172 0.010220096 -0.23476286 -0.2906312
-0.29460844 -0.18197928 -0.22470775 -0.2794242 -0.16514137 -0.084048375 -0.21616139 -0.00056616456
-0.15849565 0.06424386 -0.015321283 -0.23611067 -0.066714376 -0.019647148 0.006723982 -0.041673034
-0.12158772 -0.082908005 -0.16165695 -0.06112127 -0.22954483 0.0623148 0.16598327 0.02228686
-0.08921657 -0.094502814 0.08442162 0.19097576 0.022734005 0.061877612 0.15652789 0.124280214
0.23842315 0.1713705 0.2012908 0.13310488 0.25778168 0.32112667 0.33563724 0.16580126
-0.041228864 0.05105706 0.24813795 0.11732868 -0.020418178 -0.1250369 -0.16049124 -0.15406059
-0.076279655 0.03730647 0.016270908 -0.12342945 0.06130439 -0.09180147 -0.019250814 -0.06708886
-0.011188856 -0.018903717 -0.116717264 -0.12535737 -0.050284397 0.018997895 -0.03062614 0.05048925
-0.14022365 -0.064135015 0.09978584 -0.011794361 0.14544144 0.032874744 -0.15153222 0.11469782
0.035958137 0.0007891763 0.18124942 -0.045133483 0.10364796 0.08353485 0.20061517 0.15495005
0.12741303 0.14872466 0.077850424 0.061625086 -0.033701822 0.1120074 0.18329863 0.18455769
0.0039977566 0.02203685 -0.09266304 -0.029647974 0.029476296 0.14275405 -0.039138544 -0.027159316
-0.01533485 0.07833478 -0.07489194 -0.0550845 -0.103532456 0.118695624 0.028265424 0.17900366
0.10488633 0.00018303987 0.07129916 0.057365756 0.06896636 -0.020449862 -0.04072767 0.065250956
-0.007825243 -0.0054042228 0.056314588 -0.18954235 -0.01653018 0.18037479 0.10751319 -0.027840363
-0.2100021 0.049534414 -0.09085035 -0.04114454 -0.04576446 -0.02563622 -0.0052618654 0.08923149
0.00807731 0.09579295 0.06326603 -0.07998784 0.04787371 -0.086994454 -0.055711318 0.027862946
0.032357153 0.08106368 -0.04379884 -0.0066981623 0.053377893 -0.117459185 0.07815877 -0.100407936
-0.0051711393 -0.025280079 -0.06715423 0.007016355 0.08861444 -0.041846298 -0.07592997 -0.049275246
00000000: ec8f 823e 29ff 873e d0cd f4bc 0de1 d2bd
00000010: 3803 89bd e4aa 5e3e 903e bf3d 4af9 023d
00000020: 2f43 d7bd 5131 5cbd e94a d13c 6a49 6dbd
00000030: 4023 6bbe d72a 3cbe 6836 2ebe 6340 8f3a
00000040: bacd 80bd 8dda 09bd ac63 21be e912 41be
00000050: 7817 ae3d 21fd 813c f514 efbd 1d4d 59bc
00000060: 1d64 16be 1ebe 8a3e 701a a13e 8616 85bd
00000070: 0fe9 24be 2239 20be 4a7a 063e e862 3c3e
00000080: 6d61 43be 59b0 78be 2783 92be d357 cabd
00000090: 2540 21be 34b3 cbbd aa2f f5bd 0ba0 24be
000000a0: 90b9 9cbd 8957 7ebe 7749 eabd adf8 28be
000000b0: 7988 81be 1e0b 8cbd f09b 71bd 96fb 23bd
000000c0: 576b f7bd 8452 0fbe 0491 a33e 97ae a53e
000000d0: 9bdf d73d 3754 c0bc 6d81 703c b467 de3d
000000e0: 51c7 fa3d 7da6 22be 95ad 3dbe 57bf 23be
000000f0: b653 ac3d 5177 d03b 16aa 37be 14c5 28bc
00000100: 9c56 613c 43aa 4abd 4338 c9bd 8bb2 953c
00000110: 4eb9 3e3e 54c9 063e f056 35bd f81b b0bd
00000120: d692 8c3d 8316 3a3e 8d36 1e3e 9e4e 023e
00000130: 702b 8f3d 9b04 00be 4187 b7bd bde1 02be
00000140: c45a d8bd e65e 013e 7855 a53d 75dc e8bd
00000150: 5243 513d 98a1 71ba bbce 833d 61de 643c
00000160: 441a 063e b6ab 4dbd 5610 983d 68c3 263e
00000170: 7872 473e 8e0b 123e f11f aabd 8d9a 94bd
00000180: 7dff ef3d fac0 993d 07fc 91bd e7d9 aabd
00000190: 1825 203b 3172 273c ad65 70be 9dcd 94be
000001a0: ebd6 96be c758 3abe ca19 66be b010 8fbe
000001b0: d21a 29be 8e21 acbd 6959 5dbe a96a 14ba
000001c0: af4c 22be 4992 833d 1e06 7bbc ffc6 71be
000001d0: 8ca1 88bd 0ef3 a0bc d954 dc3b 58b1 2abd
000001e0: fc02 f9bd accb a9bd 6689 25be 4c5a 7abd
000001f0: cd0d 6bbe ce3d 7f3d 85f7 293e ef92 b63c
00000200: 2db7 b6bd b18a c1bd 3ee5 ac3d 268f 433e
00000210: aa3c ba3c 6173 7d3d d948 203e a086 fe3d
00000220: 3325 743e c07b 2f3e 2d1f 4e3e a54c 083e
00000230: f6fb 833e b76a a43e a5d8 ab3e cec7 293e
00000240: 99df 28bd 3521 513d e017 7e3e 054a f03d
00000250: 0644 a7bc ac09 00be d157 24be 0fc2 1dbe
00000260: 8238 9cbd abce 183d 914a 853c 94c8 fcbd
00000270: 501a 7b3d 6902 bcbd e2b3 9dbc e265 89bd
00000280: 7751 37bc f8db 9abc 7609 efbd af5d 00be
00000290: 03f7 4dbd 79a1 9b3c ace3 fabc d1cd 4e3d
000002a0: ca96 0fbe 3859 83bd 855c cc3d 233d 41bc
000002b0: 9aee 143e aba7 063d 432b 1bbe b1e6 ea3d
000002c0: d748 133d bae0 4e3a 7399 393e e3dd 38bd
000002d0: 6245 d43d 5214 ab3d 106e 4d3e 3aab 1e3e
000002e0: 9078 023e 474b 183e 0b70 9f3d 966a 7c3d
000002f0: ec0a 0abd 2364 e53d a3b2 3b3e b1fc 3c3e
00000300: 9dff 823b a086 b43c 1fc6 bdbd 4fe0 f2bc
00000310: 4678 f13c 1e2e 123e bd4f 20bd 377d debc
00000320: 063f 7bbc fc6d a03d f260 99bd 49a0 61bd
00000330: d308 d4bd b116 f33d e48c e73c bc4c 373e
00000340: a5ce d63d 64ee 3f39 4b05 923d 5bf8 6a3d
00000350: 3c3e 8d3d 7886 a7bc 0fd2 26bd 4ba2 853d
00000360: 7335 00bc e815 b1bb 20aa 663d 6417 42be
00000370: 4d6a 87bc 2bb4 383e e02f dc3d 7911 e4bc
00000380: ca0a 57be 99e4 4a3d c00f babd 2d87 28bd
00000390: 8473 3bbd 0d03 d2bc ba6b acbb 00bf b63d
000003a0: b256 043c 182f c43d 9f91 813d aad0 a3bd
000003b0: 3917 443d 262a b2bd 8d31 64bd d540 e43c
000003c0: ef88 043d b704 a63d 6a66 33bd 427c dbbb
000003d0: c7a2 5a3d 718e f0bd b511 a03d ada2 cdbd
000003e0: a972 a9bb 2b18 cfbc 2888 89bd 74e9 e53b
000003f0: 7d7b b53d 0667 2bbd 2c81 9bbd d7d4 49bd

features.0.bias f4 [6]
0.3312689 -0.16514589 0.12138059 0.050178118 -0.0726943 -0.07728451
00000000: 149c a93e 011c 29be 6396 f83d 9287 4d3d
00000010: c0e0 94bd 5747 9ebd

features.3.weight f4 [16, 6, 5, 5]
-0.064496435 0.058048077 0.014087759 -0.30013588 -0.3812954 -0.008275806 0.025898594 0.06613939
0.21212912 -0.01865869 -0.112499416 0.14978175 -0.09831469 -0.08066615 -0.0052592047 -0.13895148
-0.032354742 0.28717995 -0.04141979 0.07363589 -0.32966942 0.16293186 0.14284636 0.02078003
0.18890476 -0.25222704 -0.3405292 -0.055868678 -0.05898412 0.01816266 -0.0777812 -0.069175996
-0.07225783 0.0037680794 0.017966833 0.014376017 0.18110827 -0.043637775 0.16520248 0.08228814
-0.1680119 -0.0077582435 0.16317998 0.14217104 -0.09710241 -0.0017689526 0.14981848 0.17470026
0.057887353 -0.061156865 0.12657094 -0.07152249 -0.16038847 -0.014090273 -0.06351697 0.09344176
-0.015953396 -0.036859248 0.043977596 0.090435565 -0.046584234 0.06486932 0.11210488 0.040347658
0.06362963 -0.015831811 0.086857 -0.014032479 -0.07035566 -0.073996395 0.049382776 0.041445352
0.027918175 -0.08287908 0.056353323 0.08513632 -0.05574492 -0.060538936 -0.06740474 0.00419287
-0.020956084 -0.04729126 -0.020781804 0.010051941 -0.04914015 0.013163758 -0.011601463 -0.031338245
0.01689819 0.07317662 -0.054382272 0.007667755 -0.023403032 0.08552595 -0.08487067 -0.0787204
0.081640676 -0.045233965 0.016033154 -0.0063216547 -0.011375754 -0.04134107 0.037440665 0.01085037
-0.073361166 -0.06169698 -0.039635964 0.022303088 -0.053452473 0.069934666 -0.037952382 -0.021432636
0.069273084 0.04446516 0.059781995 0.035764933 -0.042109918 -0.04237056 -0.018366866 0.05040754
-0.047780924 -0.08593304 0.033810392 0.083550386 -0.0297811 -0.19504318 -0.023012508 -0.14050592
-0.20023496 -0.0419201 0.042422775 0.022022428 0.049905863 0.065918565 -0.08267398 -0.1698882
-0.16244425 0.104379 -0.010927382 -0.07323881 0.16228406 0.09192182 0.114903316 0.028548412
-0.15901731 -0.049123995 -0.07329709 0.13099858 0.07312058 0.012787545 0.06985526 -0.04511909
-0.04843822 -0.011691676 -0.013811378 -0.060644403 0.059893075 -0.040161394 0.027920932 0.06993161
0.03185846 0.0037255986 0.07706102 0.011650128 -0.038890246 0.06460868 0.02698348 -0.08505001
-0.014770769 -0.047272563 0.080233686 -0.005721657 -0.06526613 0.0048018796 0.06001481 -0.0076597417
-0.011675129 -0.016460173 -0.023340687 -0.071202636 -0.07929775 -0.09910528 -0.0917246 -0.00685314
-0.09980428 -0.015758427 -0.0052082124 -0.034206435 -0.0927415 0.0345073 -0.08756208 0.02831177
-0.122029245 -0.08282348 0.025970193 -0.1050257 -0.0053607672 -0.12992378 -0.12106291 -0.042750556
-0.056593187 0.00836605 -0.08714821 -0.060194533 -0.09561557 -0.07243602 0.0071734777 -0.12609585
-0.075439416 0.03142694 -0.06943677 0.0016260038 -0.06756188 0.004789933 -0.09825863 -0.06497046
-0.08115992 -0.058057927 -0.02134841 0.055556405 -0.07112403 -0.087550506 -0.001592203 -0.06132757
0.07688428 -0.060028434 -0.0027907426 -0.010347311 0.041079346 0.061512325 -0.018454317 -0.071629286
0.0322121 0.020144334 0.04125468 -0.044726886 0.051637802 0.07117849 0.00184368 -0.07592209
0.06457437 -0.06682777 0.013468598 0.008053793 -0.032592457 0.033887334 -0.0744107 0.018553741
-0.051693454 -0.009174661 -0.00425028 0.055026606 -0.056993842 0.03449201 -0.030410245 -0.052090004
00000000: b516 84bd d2c3 6d3d 58d0 663c 69ab 99be
00000010: 2739 c3be 3f97 07bc 4a29 d43c 1774 873d
00000020: 6038 593e 1cda 98bc 1866 e6bd 6360 193e
00000030: 3659 c9bd 4b34 a5bd 6855 acbb 4c49 0ebe
00000040: 6886 04bd 4009 933e cca7 29bd 6ace 963d
00000050: 6eca a8be 9cd7 263e 5146 123e e23a aa3c
00000060: 4070 413e e723 81be d859 aebe 8ed6 64bd
00000070: 5599 71bd dcc9 943c c04b 9fbd 25ac 8dbd
00000080: eafb 93bd e2f1 763b 2e2f 933c 6389 6b3c
00000090: 7274 393e 86bd 32bd d72a 293e af86 a83d
000000a0: 500b 2cbe dd38 febb a718 273e 4995 113e
000000b0: a1dd c6bd 33dc e7ba 046a 193e a0e4 323e
000000c0: 4a1b 6d3d 9f7f 7abd d09b 013e 627a 92bd
000000d0: e03c 24be e3da 66bc 2f15 82bd 655e bf3d
000000e0: b2b0 82bc b9f9 16bd da21 343d 4836 b93d
000000f0: 1ccf 3ebd 35da 843d 3e97 e53d 9643 253d
00000100: 4050 823d b7b1 81bc 15e2 b13d 7ce8 65bc
00000110: a116 90bd 6c8b 97bd 9845 4a3d 9ac2 293d
00000120: a8b4 e43c 82bc a9bd bed2 663d f35b ae3d
00000130: c954 64bd adf7 77bd 7f0b 8abd 5864 893b
00000140: 18ac abbc 7bb4 41bd 9a3e aabc e5b0 243c
00000150: 2f47 49bd ceac 573c 1014 3ebc 885c 00bd
00000160: 136e 8a3c a0dd 953d f2bf 5ebd ca41 fb3b
00000170: b7b7 bfbc 3b28 af3d add0 adbd 2938 a1bd
00000180: 3a33 a73d 4047 39bd f657 833c e225 cfbb
00000190: 5f61 3abc 4155 29bd 625b 193d c0c5 313c
000001a0: 613e 96bd f9b5 7cbd 5259 22bd f7b4 b63c
000001b0: fbf0 5abd e839 8f3d f573 1bbd 7f93 afbc
000001c0: 0cdf 8d3d 1a21 363d f7dd 743d 407e 123d
000001d0: 737b 2cbd c18c 2dbd 1c76 96bc 2378 4e3d
000001e0: eeb5 43bd a9fd afbd c47c 0a3d 771c ab3d
000001f0: 7ef7 f3bc 66b9 47be ba84 bcbc c9e0 0fbe
00000200: 650a 4dbe 69b4 2bbd 81c3 2d3d 6168 b43c
00000210: 176a 4c3d 5000 873d fa50 a9bd 2cf7 2dbe
00000220: c957 26be a8c4 d53d c308 33bc 3bfe 95bd
00000230: cb2d 263e 8241 bc3d 6e52 eb3d 5cde e93c
00000240: 6fd5 22be 3e36 49bd c91c 96bd 7e24 063e
00000250: 3ec0 953d da82 513c 4610 8f3d cbce 38bd
00000260: 2867 46bd 728e 3fbc 1e49 62bc 4466 78bd
00000270: 7152 753d 4680 24bd 70ba e43c 4e38 8f3d
00000280: 047e 023d 2c29 743b 2bd2 9d3d 2ee0 3e3c
00000290: 614b 1fbd 8e51 843d 760c dd3c b32e aebd
000002a0: 1801 72bc e0a0 41bd 8f51 a43d bd7c bbbb
000002b0: 40aa 85bd 1659 9d3b 17d2 753d 92fe fabb
000002c0: 0a49 3fbc 7cd7 86bc f834 bfbc b0d2 91bd
000002d0: dc66 a2bd b6f7 cabd 1bda bbbd 4e90 e0bb
000002e0: 3066 ccbd d117 81bc a7a9 aabb 0c1c 0cbd
000002f0: 41ef bdbd 8757 0d3d bf53 b3bd 16ee e73c
00000300: 78ea f9bd 5b9f a9bd 71bf d43c b717 d7bd
00000310: 60a9 afbb bd0a 05be d5ef f7bd 351b 2fbd
00000320: 42ce 67bd c211 093c c37a b2bd 8b8e 76bd
00000330: 19d2 c3bd 5659 94bd 7e0f eb3b 451f 01be
00000340: fb7f 9abd 89b9 003d de34 8ebd a21f d53a
00000350: e25d 8abd dff4 9c3b d23b c9bd 3c0f 85bd
00000360: 2c37 a6bd 26ce 6dbd dce2 aebc 1d8f 633d
00000370: 7aa9 91bd ae4d b3bd 78b1 d0ba 9e32 7bbd
00000380: 8175 9d3d 60e0 75bd e4e4 36bb c587 29bc
00000390: d142 283d 59f4 7b3d 822d 97bc 60b2 92bd
000003a0: d6f0 033d bb05 a53c abfa 283d 8a33 37bd
000003b0: 2982 533d 07c6 913d a3a7 f13a 0a7d 9bbd
000003c0: 913f 843d ffdc 88bd 65ab 5c3c 0ef4 033c
000003d0: ab7f 05bd 72cd 0a3d a364 98bd 04fe 973c
000003e0: 84bc 53bd 5151 16bc ef45 8bbb 9463 613d
000003f0: 6072 69bd 7e47 0d3d e81e f9bc 545c 55bd

features.3.bias f4 [16]
0.08560065 -0.114200376 -0.44385284 0.019907562 -0.3863128 0.32942775 0.05917407 -0.087926716
0.006462248 -0.2672276 0.04060027 0.08514811 0.11741541 -0.074222796 -0.092149116 -0.04793453
00000000: 654f af3d e3e1 e9bd ae40 e3be 2f15 a33c
00000010: cbca c5be c1aa a83e 8260 723d ec12 b4bd
00000020: 44c1 d33b 0ed2 88be 784c 263d 2262 ae3d
00000030: 7e77 f03d 1f02 98bd adb8 bcbd ff56 44bd

classifier1.0.weight f4 [32, 256]
0.13002115 -0.14577381 -0.13724436 -0.05809104 0.036238536 0.12610878 0.16589767 0.10831705
-0.005203016 -0.07228756 -0.20042217 0.09720184 0.09953095 -0.13713148 -0.11479946 -0.06464977
0.061166447 -0.05166043 0.021764202 0.04242343 -0.0015822452 0.038855392 -0.013638276 0.064785354
0.011113895 -0.033500616 0.030722853 0.018898841 0.07000345 0.026293386 0.043844342 0.04238836
-0.021697948 0.007548404 0.20119865 -0.05225076 0.050756395 0.16147073 0.16117707 -0.12457702
0.10192824 -0.13929465 -0.010976766 -0.108638786 -0.06609192 0.109275766 -0.32354185 -0.016471555
0.0024472834 -0.033707768 0.055213943 -0.02742783 -0.039553497 -0.070668794 -0.055133604 0.054618668
0.015317559 -0.011105511 0.0008679742 -0.05870133 0.013442929 -0.016622096 -0.02934724 -0.056446053
0.12022969 -0.076531 -0.10174082 -0.09777968 -0.03128819 0.03461315 0.14905223 -0.08079153
-0.115259044 0.1294791 0.08260864 0.09539197 -0.17317066 0.28680617 0.017063646 -0.03312909
-0.06376673 -0.03748497 0.067479245 -0.055418953 0.042654622 -0.024802374 0.072235204 -0.032572616
0.009853841 0.052224506 -0.06062462 -0.014734738 0.010967034 0.05494339 -0.15797104 0.0922789
0.3190177 0.12781556 0.0972646 -0.047827333 0.015291152 -0.10212788 -0.050169878 0.0038328557
0.07375336 0.0040042712 -0.37369102 0.073534146 0.15466781 0.09788251 0.040667392 -0.20339666
-0.03613403 0.15322681 -0.2838011 0.05989573 -0.036194373 0.08738283 0.16928467 -0.0338143
0.013655098 0.012422119 0.08801312 0.024832072 -0.014303357 -0.28847095 -0.108630784 -0.055367015
-0.022073068 -0.012868909 -0.031224089 0.031592775 0.026167488 -0.065335274 -0.008256697 0.01069354
0.05363489 -0.025068304 0.025244897 -0.012900915 -0.027672749 0.038200602 -0.06369185 0.04605718
-0.12875047 0.06316002 0.009292784 -0.109861344 -0.032196745 0.34078526 -0.012074638 -0.22325344
-0.058274575 0.057335902 -0.048299093 0.1699454 -0.024891043 -0.10354395 0.09984192 0.042074654
0.03468502 -0.01786469 -0.03762501 0.024019733 -0.041925903 -0.05154252 0.037446976 -0.03715299
-0.022467216 -0.020578828 -0.048110176 -0.03273625 -0.023194507 -0.0057750246 0.022989271 0.0055171084
-0.007382875 -0.06606328 -0.0049198032 0.16918337 -0.023827534 -0.038915176 0.1548929 0.038305275
0.15869616 -0.017746828 -0.06640212 0.0020154924 -0.03775673 0.11895213 0.13673912 0.16810489
-0.15253511 0.028843118 0.034589976 -0.011778222 0.1803902 0.10461087 0.019854344 0.16483629
-0.1308313 -0.059576932 -0.034487434 0.05065744 -0.06477217 0.07787975 -0.11756665 -0.005855571
0.029548116 0.037401438 0.033439416 0.07001276 0.0020844897 0.04618895 0.034479573 -0.017290588
-0.048666965 0.11906824 -0.009273161 0.049171522 0.037934583 -0.006481441 -0.0295449 0.017506106
-0.027428363 0.021345593 -0.030083656 0.05482415 -0.053529743 -0.0074292603 0.007648611 0.00390456
0.06981963 0.0010794166 -0.039024863 0.041193888 0.040818956 0.065345146 -0.018576598 -0.030951811
-0.009566417 -0.055613395 -0.015394359 -0.06942973 -0.0033694294 -0.09335569 0.022356955 -0.037766516
-0.01619315 -0.090878054 -0.12998667 -0.13370885 -0.0056858524 -0.09380137 -0.0025365646 -0.05226602
00000000: 4424 053e bb45 15be c989 0cbe dff0 6dbd
00000010: dc6e 143d a922 013e 14e1 293e 54d5 dd3d
00000020: 107e aabb 800b 94bd 783b 4dbe c211 c73d
00000030: e2d6 cb3d 326c 0cbe fb1b ebbd 1967 84bd
00000040: ab89 7a3d e399 53bd d74a b23c 31c4 2d3d
00000050: 5763 cfba d526 1f3d 1373 5fbc 2fae 843d
00000060: 0e17 363c f137 09bd 7eae fb3c bed1 9a3c
00000070: f85d 8f3d 3a65 d73c 2096 333d 6b9f 2d3d
00000080: e5bf b1bc 9a58 f73b 0507 4e3e e504 56bd
00000090: f0e5 4f3d 9558 253e 9a0b 253e 3d22 ffbd
000000a0: c1bf d03d 42a3 0ebe e5d7 33bc 037e debd
000000b0: 335b 87bd f9cb df3d 47a7 a5be 5bef 86bc
000000c0: 9a62 203b 2811 0abd 0428 623d 54b0 e0bc
000000d0: d902 22bd cdba 90bd c6d3 61bd d3b7 5f3d
000000e0: 80f6 7a3c e4f3 35bc c388 633a ce70 70bd
000000f0: bb3f 5c3c 102b 88bc a069 f0bc fa33 67bd
00000100: fc3a f63d 49bc 9cbd 7e5d d0bd b640 c8bd
00000110: 0c28 00bd 85c6 0d3d 26a1 183e 0876 a5bd
00000120: ef0c ecbd 2b96 043e b82e a93d dd5c c33d
00000130: a653 31be 42d8 923e 0fc9 8b3c 5eb2 07bd
00000140: 2298 82bd d789 19bd 8f32 8a3d fcfe 62bd
00000150: 9db6 2e3d 592e cbbc 0df0 933d dd6a 05bd
00000160: 0172 213c 5de9 553d 8651 78bd f869 71bc
00000170: 13af 333c 520c 613d 29c3 21be b8fc bc3d
00000180: 4a56 a33e 15e2 023e aa32 c73d 98e6 43bd
00000190: bd87 7a3c 6c28 d1bd ee7e 4dbd a630 7b3b
000001a0: 000c 973d 4336 833b 6e54 bfbe 1299 963d
000001b0: 3d61 1e3e a076 c83d da92 263d 3747 50be
000001c0: 4701 14bd 7de7 1c3e 614e 91be 3a55 753d
000001d0: 8d40 14bd c5f5 b23d f658 2d3e dd80 0abd
000001e0: a2b9 5f3c 2586 4b3c 3940 b43d a16c cb3c
000001f0: a158 6abc 77b2 93be d179 debd 86c8 62bd
00000200: 94d2 b4bc 1ed8 52bc a9c9 ffbc 6d67 013d
00000210: 335d d63c 80ce 85bd 1947 07bc f533 2f3c
00000220: 42b0 5b3d 0b5c cdbc 63ce ce3c 5c5e 53bc
00000230: f6b1 e2bc 3c78 1c3d df70 82bd 74a6 3c3d
00000240: 2ad7 03be 0a5a 813d c340 183c fcfe e0bd
00000250: bce0 03bd 687b ae3e b4d4 45bc 8d9c 64be
00000260: 52b1 6ebd 0dd9 6a3d 45d5 45bd 2b06 2e3e
00000270: 4de8 cbbc da0e d4bd ec79 cc3d 7956 2c3d
00000280: e111 0e3d f858 92bc af1c 1abd 08c5 c43c
00000290: 7fba 2bbd 401e 53bd 0062 193d bc2d 18bd
000002a0: 2b0d b8bc ee94 a8bc 2d0f 45bd 7216 06bd
000002b0: 6802 bebc 6b3c bdbb ff53 bc3c dcc8 b43b
000002c0: 0bec f1bb 2f4c 87bd 4d36 a1bb 683e 2d3e
000002d0: f631 c3bc 8565 1fbd 3f9c 1e3e fee5 1c3d
000002e0: 3f81 223e cc61 91bc d6fd 87bd 5a16 043b
000002f0: cda6 1abd 2d9d f33d 5705 0c3e b023 2c3e
00000300: 2a32 1cbe 6748 ec3c 38ae 0d3d 72f9 40bc
00000310: 35b8 383e 393e d63d 94a5 a23c d8ca 283e
00000320: a4f8 05be f106 74bd b242 0dbd 2d7e 4f3d
00000330: 45a7 84bd 6b7f 9f3d c9c6 f0bd 17e0 bfbb
00000340: e40e f23c 4032 193d c5f7 083d da62 8f3d
00000350: ef9b 083b a030 3d3d 743a 0d3d fea4 8dbc
00000360: 0357 47bd 0dda f33d 75ee 17bc 1468 493d
00000370: 4b61 1b3d 4562 d4bb 2508 f2bc f768 8f3c
00000380: 72b1 e0bc f4dc ae3c 0072 f6bc 4a8f 603d
00000390: 0142 5bbd 2771 f3bb 33a1 fa3b a6e3 7f3b
000003a0: 98fd 8e3d 367b 8d3a 89d8 1fbd ecba 283d
000003b0: c731 273d add3 853d f32d 98bc a78e fdbc
000003c0: 76bc 1cbc dfca 63bd 9f38 7cbc 2d31 8ebd
000003d0: a5d1 5cbb 4531 bfbd ef25 b73c 10b1 1abd
000003e0: 7fa7 84bc 461e babd 3a1b 05be f9ea 08be
000003f0: 6350 babb ef1a c0bd 7e3c 26bb e514 56bd

classifier1.0.bias f4 [32]
-0.28218687 -0.123218685 0.18201905 0.20350175 0.19732755 -0.0010912064 -0.033500597 0.088080786
-0.48436764 0.17268611 -0.4022419 -0.13637799 -0.72178644 -0.45477816 0.045782275 -0.44932964
-0.3339807 0.5433727 0.8627789 -0.15178686 -0.04804687 -0.079923116 -0.26767856 -0.81283367
0.3977472 0.8479259 -0.09864056 -0.2966987 -0.37966138 -0.1876951 -0.462532 0.5330838
00000000: cc7a 90be 145a fcbd 3463 3a3e c362 503e
00000010: 3c10 4a3e d006 8fba ec37 09bd b363 b43d
00000020: 09ff f7be a1d4 303e a6f2 cdbe aca6 0bbe
00000030: ffc6 38bf afd8 e8be 3286 3b3d 890e e6be
00000040: 85ff aabe 791a 0b3f 14df 5c3f 046e 1bbe
00000050: cbcc 44bd bbae a3bd 2a0d 89be de15 50bf
00000060: 85a5 cb3e ac11 593f 1004 cabd e4e8 97be
00000070: fa62 c2be 2533 40be ffd0 ecbe 2e78 083f

classifier1.2.weight f4 [10, 32]
-0.10374723 -0.014607429 0.0909291 -0.08360429 0.43451965 -0.009579476 -0.14260453 0.3058931
-0.25494492 -0.06446874 -0.2009505 -0.15470713 -0.10809907 0.2944275 0.055799365 -0.026348762
-0.13491422 0.16472957 0.10743846 0.10368432 -0.087909974 -0.18229805 0.027959934 0.17802148
0.16091765 -0.15465064 0.25049454 -0.15564916 -0.22962715 0.22079436 0.31166083 0.08244278
0.11698352 0.02729438 0.10188825 -0.023400767 -0.035559226 -0.28172123 0.028775025 -0.041690376
0.17854218 -0.053346552 0.12471174 0.25512946 -0.078769594 0.07002935 0.06818733 -0.08010035
-0.16614795 0.29236355 0.192903 0.11106036 -0.038227 -0.037441727 0.10999454 0.030863794
-0.0060116975 0.045851238 -0.14905335 0.049179293 -0.2971074 0.016627192 0.018455816 0.06965008
0.0127921095 -0.002529746 4.0372484e-05 0.09158404 0.14708172 0.35726064 -0.14414553 0.2257176
-0.2633873 -0.12183883 -0.040847402 0.3497242 -0.26248276 0.028132902 0.29156026 0.26902762
0.04097912 -0.33118126 0.018573575 0.13184059 -0.10223965 -0.32373574 -0.06823683 -0.037296027
-0.09991975 -0.06678232 0.4290083 -0.050931923 0.11081941 0.0025229454 0.010269799 -0.040902007
-0.013463481 0.05592187 -0.123433076 -0.1694816 -0.028459802 0.1822418 -0.1398146 -0.09396702
0.34873363 0.1192484 0.1407827 -0.3034611 0.13290288 -0.041587904 0.030844668 0.19187874
0.09613997 -0.08220953 -0.032187153 -0.059493665 -0.014260584 -0.17153512 -0.068984434 0.09221058
0.13552816 -0.010461647 -0.16650124 0.15655175 0.17615785 0.06931517 0.09834069 -0.15184473
0.126266 0.08782339 -0.2088068 0.26968858 -0.38731706 -0.16495697 0.05756523 -0.23850338
0.12116081 -0.025657067 0.030948859 0.14854665 0.27255374 -0.16945012 -0.07449998 -0.05525458
0.034865987 -0.035321448 -0.029675959 -0.43533406 -0.19387151 -0.005558515 -0.1778068 -0.040625073
-0.009925035 -0.18300697 -0.04350924 0.29231492 0.0473557 -0.17669171 -0.15732552 -0.17810278
0.0787374 0.06644947 0.1641268 0.1564336 -0.026572017 -0.35653007 -0.03601466 0.033008765
0.10301883 0.0844077 -0.20665964 -0.034172848 0.011602474 -0.15554558 -0.14324315 -0.19109204
-0.011510576 -0.09075121 0.11920777 -0.24320571 0.05977543 0.021856941 -0.03986107 -0.21877016
0.23716862 0.15081432 -0.37712875 0.053281818 -0.51068676 -0.08528004 -0.2623472 0.26282346
0.014816318 0.26437396 -0.18575355 -0.25447628 0.021240396 0.26869425 0.01622842 -0.07027827
0.16197251 -0.12894686 0.14519572 0.052357417 -0.118043855 -0.0065176305 0.35415837 0.19834243
0.012748197 0.017164996 0.21922219 0.22108914 0.008422683 0.43506104 0.1489533 0.15076591
-0.18391491 -0.26828367 0.025770195 0.17446667 0.28756648 0.0272193 0.2372922 -0.16710609
0.03325433 -0.010076928 -0.17197172 -0.04804868 0.15587112 0.33268833 -0.09861229 0.26315236
-0.13326725 -0.012060143 -0.04906955 0.04349939 -0.056989633 0.14874373 -0.19435969 0.092510015
0.078046836 -0.09228697 -0.19194992 0.3465031 -0.032830223 0.13919938 0.18456763 0.13154188
0.11586337 0.19799864 0.23296703 -0.27285936 -0.0041441 -0.009453193 0.24565113 -0.03379841
00000000: 6d79 d4bd ff53 6fbc 0939 ba3d ba38 abbd
00000010: 5c79 de3e 3cf3 1cbc ec06 12be 059e 9c3e
00000020: 2488 82be 3008 84bd f8c5 4dbe 8c6b 1ebe
00000030: 0c63 ddbd 34bf 963e e08d 643d 5cd9 d7bc
00000040: f426 0abe deae 283e b208 dc3d 7258 d43d
00000050: 250a b4bd 57ac 3abe 3b0c e53c 434b 363e
00000060: 99c7 243e bd5c 1ebe d240 803e 7e62 1fbe
00000070: 6123 6bbe eb17 623e 0292 9f3e c3d7 a83d
00000080: 0e95 ef3d 7798 df3c c9aa d03d f7b2 bfbc
00000090: 8da6 11bd c43d 90be 9ab9 eb3c 87c3 2abd
000000a0: c3d3 363e ea81 5abd de68 ff3d 54a0 823e
000000b0: f451 a1bd 8c6b 8f3d cda5 8b3d a70b a4bd
000000c0: b022 2abe adb0 953e 5d88 453e 9d73 e33d
000000d0: ea93 1cbd 7f5c 19bd d144 e13d 11d6 fc3c
000000e0: c6fd c4bb 82ce 3b3d 71a1 18be 3a70 493d
000000f0: 761e 98be c035 883c a730 973c b3a4 8e3d
00000100: ff95 513c 18ca 25bb a055 2938 6a90 bb3d
00000110: 979c 163e deea b63e e39a 13be 8422 673e
00000120: b3da 86be a386 f9bd 9b4f 27bd 0d0f b33e
00000130: 2464 86be f976 e63c 6347 953e fdbd 893e
00000140: b9d9 273d 9790 a9be 9c27 983c 3801 073e
00000150: 0663 d1bd b1c0 a5be c0bf 8bbd b8c3 18bd
00000160: baa2 ccbd 2bc5 88bd faa6 db3e fe9d 50bd
00000170: 49f5 e23d 0058 253b a942 283c dd88 27bd
00000180: ef95 5cbc 550e 653d 7bca fcbd 968c 2dbe
00000190: 8824 e9bc 989d 3a3e 8f2b 0fbe c871 c0bd
000001a0: 378d b23e 8138 f43d 5729 103e 415f 9bbe
000001b0: b117 083e 1458 2abd f5ad fc3c dc7b 443e
000001c0: 08e5 c43d 785d a8bd add6 03bd a1af 73bd
000001d0: 39a5 69bc e7a6 2fbe b647 8dbd e7d8 bc3d
000001e0: e5c7 0a3e 5467 2bbc 4d7f 2abe 1a4f 203e
000001f0: b962 343e 1df5 8d3d d866 c93d 2f7d 1bbe
00000200: e04b 013e c0dc b33d 73d1 55be 9f14 8a3e
00000210: 6c4e c6be 7bea 28be 85c9 6b3d 3b3a 74be
00000220: 2923 f83d c52e d2bc 7688 fd3c 9d1c 183e
00000230: 2a8c 8b3e 5584 2dbe 7293 98bd a052 62bd
00000240: a3cf 0e3d 39ad 10bd ff1a f3bc 1be4 debe
00000250: 4186 46be 3424 b6bb fc12 36be 7a66 26bd
00000260: 9d9c 22bc 2e66 3bbe bf36 32bd 4daa 953e
00000270: 0df8 413d acee 34be f119 21be 9360 36be
00000280: 1341 a13d a916 883d db10 283e 2130 203e
00000290: 8fad d9bc 1c8b b6be 1c84 13bd 3334 073d
000002a0: 89fb d23d f2dd ac3d 969e 53be d4f8 0bbd
000002b0: 4e18 3e3c 5747 1fbe 55ae 12be a2ad 43be
000002c0: db96 3cbc c5db b9bd 3423 f43d eb0a 79be
000002d0: 15d7 743d 540d b33c 5d45 23bd 4905 60be
000002e0: 55dc 723e 126f 1a3e 0517 c1be 093e 5a3d
000002f0: 5ebc 02bf 4da7 aebd 5f52 86be cc90 863e
00000300: 24c0 723c 065c 873e 2e36 3ebe b74a 82be
00000310: 5700 ae3c 4b92 893e 77f1 843c 0eee 8fbd
00000320: 1fdc 253e a50a 04be 30ae 143e bb74 563d
00000330: fac0 f1bd d991 d5bb 3f54 b53e 471a 4b3e
00000340: d0dd 503c 9b9d 8c3c c87b 603e 3165 623e
00000350: 4bff 093c 52c0 de3e 3787 183e 6162 1a3e
00000360: 3154 3cbe 7a5c 89be 041c d33c 64a7 323e
00000370: ea3b 933e 02fb de3c bafc 723e dc1d 2bbe
00000380: b135 083d b319 25bc 5b19 30be b1ce 44bd
00000390: ae9c 1f3e 2056 aa3e 3ef5 c9bd e8bb 863e
000003a0: 3677 08be e897 45bc 27fd 48bd 6b2c 323d
000003b0: f66d 69bd 4750 183e 3a06 47be e475 bd3d
000003c0: 05d7 9f3d f300 bdbd 858e 44be db68 b13e
000003d0: fc78 06bd 488a 0e3e 4cff 3c3e eab2 063e
000003e0: c649 ed3d 28c0 4a3e e98e 6e3e 39b4 8bbe
000003f0: 3bcb 87bb 91e1 1abc f88b 7b3e 3470 0abd

classifier1.2.bias f4 [10]
0.27229333 0.6354478 -0.5111809 -0.5190239 -0.6803837 0.58153063 -0.5606997 -0.50181586
0.15907858 0.2576957
00000000: 086a 8b3e b5ac 223f c0dc 02bf c0de 04bf
00000010: a02d 2ebf 31df 143f 048a 0fbf 0177 00bf
00000020: 7fe5 223e b1f0 833e

classifier1.3.weight f4 [10]
1.6631674 1.2459626 1.5734416 1.6627645 1.7958795 1.7602869 1.3692503 1.7348939
1.7321165 1.3812419
00000000: abe2 d43f b47b 9f3f 8966 c93f 78d5 d43f
00000010: 61df e53f 1551 e13f 9843 af3f 0111 de3f
00000020: feb5 dd3f 89cc b03f

classifier1.3.bias f4 [10]
-0.06720739 -0.106758565 -0.5663081 0.30217895 -0.19115843 -0.13529676 0.23718372 0.17425922
0.17614615 -0.2370298
00000000: 07a4 89bd 3ca4 dabd 91f9 10bf 33b7 9a3e
00000010: 09bf 43be 3c8b 0abe 4ae0 723e 0271 323e
00000020: a85f 343e f1b7 72be

classifier2.0.weight f4 [10, 10]
-0.2909839 -0.46574485 0.12768593 0.5124413 0.42728895 -0.38803026 -0.093337715 -0.010824131
0.2911198 -0.6625521 0.44415012 0.45931846 -0.19649495 -0.085191265 -0.36437052 0.6111372
0.25812846 -0.67597544 0.24310604 -0.06281729 0.73189914 0.23094271 -0.033722162 -0.17658053
0.118245974 -0.41782805 0.3838735 0.10407828 -1.2127333 -0.099915326 -0.6185224 -0.025763119
-0.33682656 0.50585216 -0.5384922 0.40122247 0.33435827 0.18928649 0.55723363 -0.55613846
0.58134925 0.15021598 -0.48160514 0.017878946 -0.089750454 0.47992 -0.16403179 0.44390416
0.027508428 -0.050613966 -0.066190794 0.023839926 -0.65881497 0.81561387 -0.49043584 0.24983357
-0.4102741 0.13650917 0.4507197 -0.006211548 -0.58802545 -0.40697885 -0.4554377 0.549181
0.35698983 -0.26131123 0.38828996 -0.04113317 0.20592049 -0.36380842 -0.37671316 0.37965396
0.4053603 -1.0655856 -0.06807684 0.40500736 -0.54611284 0.016250279 -0.19844168 -0.19736984
0.4674933 0.01591935 -0.16651805 0.18870233 -0.6830816 -0.7396865 0.3613468 0.7671079
0.06851566 -0.29665095 0.09815097 -0.44088238 0.13402927 -0.079534024 -0.7214733 -0.85840964
0.22905643 0.18469389 0.30836943 -0.26091233
00000000: d7fb 94be 1c76 eebe 1ac0 023e 5a2f 033f
00000010: 9ec5 da3e e7ab c6be d827 bfbd b257 31bc
00000020: a80d 953e 049d 29bf a567 e33e ca2b eb3e
00000030: f935 49be c278 aebd c68e babe 7d73 1c3f
00000040: 6a29 843e ba0c 2dbf caf0 783e 5aa6 80bd
00000050: be5d 3b3f 3f7c 6c3e 4020 0abd 87d1 34be
00000060: f22a f23d 8fed d5be 118b c43e fe26 d53d
00000070: d83a 9bbf 68a0 ccbd 7c57 1ebf 2d0d d3bc
00000080: 8874 acbe 877f 013f a0da 09bf 086d cd3e
00000090: 0231 ab3e 51d4 413e dda6 0e3f 175f 0ebf
000000a0: 4ed3 143f 38d2 193e f394 f6be de76 923c
000000b0: 16cf b7bd 13b8 f53e f3f7 27be 6847 e33e
000000c0: 5b59 e13c 9750 4fbd 0a8f 87bd f34b c33c
000000d0: 19a8 28bf 12cc 503f 681a fbbe 5fd4 7f3e
000000e0: 720f d2be 0fc9 0b3e bcc4 e63e 3e8a cbbb
000000f0: d688 16bf 885f d0be 212f e9be 2097 0c3f
00000100: 5fc7 b63e 96ca 85be f1cd c63e 417b 28bd
00000110: d2dc 523e 1945 babe 8ce0 c0be 0162 c23e
00000120: 638b cf3e 1c65 88bf df6b 8bbd 205d cf3e
00000130: 0dce 0bbf 4e1f 853c 4c34 4bbe 521b 4abe
00000140: 485b ef3e 4c69 823c b583 2abe 2f3b 413e
00000150: 70de 2ebf 185c 3dbf 7302 b93e 2f61 443f
00000160: f051 8c3d a2e2 97be 6003 c93d 56bb e1be
00000170: f83e 093e bce2 a2bd 79b2 38bf bcc0 5bbf
00000180: c58d 6a3e 6520 3d3e 99e2 9d3e 4d96 85be

classifier2.0.bias f4 [10]
0.2282208 -0.035222355 0.05309514 -0.04791408 0.38350216 0.5017597 0.078902125 0.07708129
0.3885684 0.17993495
00000000: b7b2 693e 5145 10bd 4a7a 593d 8e41 44bd
00000010: 655a c43e 5373 003f 7097 a13d ccdc 9d3d
00000020: 70f2 c63e de40 383e

classifier2.2.weight f4 [7, 10]
0.24760972 0.19486691 -0.31215763 0.20580307 0.39691225 -0.42298257 -0.35045743 0.8146032
-0.1472267 -0.54557884 -0.4826278 0.19397317 0.1455428 -0.62443966 0.6088457 0.120548666
-0.03249594 -0.006569708 0.20312971 -0.47955322 -0.9418617 0.25522655 -0.5528461 0.31927773
0.17823626 0.2820391 -0.11010336 -0.37013978 -0.16247918 0.07167764 -0.603758 0.15311652
0.08732834 -0.10262786 -0.05949135 -0.42570335 -0.3061387 0.28746524 -0.37337324 0.32471246
0.33693174 -0.74168456 0.47954354 0.28739277 -0.36534727 0.28791606 0.5867848 0.011108347
-0.64911085 -0.43465757 0.12733015 0.121822804 -0.3523788 0.13934354 -0.48536333 -0.042269617
0.2546665 -0.9308239 0.59515727 0.5231791 -1.1455674 -1.4627757 0.91052794 -0.46336448
-0.3615199 -1.1668165 -0.15557058 -0.51087195 0.50877523 -0.15325586
00000000: 678d 7d3e 318b 473e 20d3 9fbe 0abe 523e
00000010: 1538 cb3e 2c91 d8be 286f b3be d689 503f
00000020: 99c2 16be 0eab 0bbf fe1a f7be e7a0 463e
00000030: 2c09 153e 47db 1fbf 50dd 1b3f 38e2 f63d
00000040: 761a 05bd b546 d7bb 3c01 503e 0088 f5be
00000050: d91d 71bf 0ead 823e 5287 0dbf 5f78 a33e
00000060: 9183 363e 6e67 903e df7d e1bd f682 bdbe
00000070: f160 26be bacb 923d e28f 1abf 94ca 1c3e
00000080: 33d9 b23d 8e2e d2bd 34ad 73bd caf5 d9be
00000090: 36be 9cbe a52e 933e c72a bfbe b640 a63e
000000a0: 5182 ac3e 0adf 3dbf bb86 f53e 2525 933e
000000b0: cc0e bbbe bc69 933e 8737 163f c9ff 353c
000000c0: 212c 26bf 708b debe d662 023e 3c7e f93d
000000d0: fe6a b4be 13b0 0e3e 8b81 f8be e822 2dbd
000000e0: a663 823e 7a4a 6ebf 3a5c 183f 11ef 053f
000000f0: f4a1 92bf 3c3c bbbf 5c18 693f 1c3e edbe
00000100: 2319 b9be 3e5a 95bf e54d 1fbe 81c8 02bf
00000110: 183f 023f 1bef 1cbe

classifier2.2.bias f4 [7]
0.013114622 -0.36166152 -0.21159059 0.30170694 0.06318267 -0.0842494 -0.3892081
00000000: b6de 563c b32b b9be 34ab 58be 5579 9a3e
00000010: ea65 813d f38a acbd 4946 c7be
